20 classes remain, 0.7416592499939865% bounding boxes remain
['lamp', 'table', 'cabinet', 'garbage_bin', 'desk', 'bed', 'chair', 'shelf', 'pillow', 'night_stand', 'sink', 'endtable', 'door', 'sofa_chair', 'monitor', 'sofa', 'counter', 'box', 'computer', 'drawer']
using cuda
==========================================================================================
Layer (type:depth-idx)                   Output Shape              Param #
==========================================================================================
├─IntermediateLayerGetter: 1-1           [4, 2048, 14, 18]         --
|    └─Conv2d: 2-1                       [4, 64, 213, 280]         12,544
|    └─BatchNorm2d: 2-2                  [4, 64, 213, 280]         128
|    └─ReLU: 2-3                         [4, 64, 213, 280]         --
|    └─MaxPool2d: 2-4                    [4, 64, 107, 140]         --
|    └─Sequential: 2-5                   [4, 256, 107, 140]        --
|    |    └─Bottleneck: 3-1              [4, 256, 107, 140]        75,008
|    |    └─Bottleneck: 3-2              [4, 256, 107, 140]        70,400
|    |    └─Bottleneck: 3-3              [4, 256, 107, 140]        70,400
|    └─Sequential: 2-6                   [4, 512, 54, 70]          --
|    |    └─Bottleneck: 3-4              [4, 512, 54, 70]          379,392
|    |    └─Bottleneck: 3-5              [4, 512, 54, 70]          280,064
|    |    └─Bottleneck: 3-6              [4, 512, 54, 70]          280,064
|    |    └─Bottleneck: 3-7              [4, 512, 54, 70]          280,064
|    └─Sequential: 2-7                   [4, 1024, 27, 35]         --
|    |    └─Bottleneck: 3-8              [4, 1024, 27, 35]         1,512,448
|    |    └─Bottleneck: 3-9              [4, 1024, 27, 35]         1,117,184
|    |    └─Bottleneck: 3-10             [4, 1024, 27, 35]         1,117,184
|    |    └─Bottleneck: 3-11             [4, 1024, 27, 35]         1,117,184
|    |    └─Bottleneck: 3-12             [4, 1024, 27, 35]         1,117,184
|    |    └─Bottleneck: 3-13             [4, 1024, 27, 35]         1,117,184
|    └─Sequential: 2-8                   [4, 2048, 14, 18]         --
|    |    └─Bottleneck: 3-14             [4, 2048, 14, 18]         6,039,552
|    |    └─Bottleneck: 3-15             [4, 2048, 14, 18]         4,462,592
|    |    └─Bottleneck: 3-16             [4, 2048, 14, 18]         4,462,592
├─DeepLabHead: 1-2                       [4, 38, 14, 18]           --
|    └─ASPP: 2-9                         [4, 256, 14, 18]          --
|    |    └─Sequential: 3-17             [4, 256, 14, 18]          328,192
|    └─Conv2d: 2-10                      [4, 256, 14, 18]          589,824
|    └─BatchNorm2d: 2-11                 [4, 256, 14, 18]          512
|    └─ReLU: 2-12                        [4, 256, 14, 18]          --
|    └─Conv2d: 2-13                      [4, 38, 14, 18]           9,766
==========================================================================================
Total params: 24,439,462
Trainable params: 24,439,462
Non-trainable params: 0
Total mult-adds (G): 18.67
==========================================================================================
Input size (MB): 15.23
Forward/backward pass size (MB): 2967.40
Params size (MB): 97.76
Estimated Total Size (MB): 3080.39
…
