using cuda
==========================================================================================
Layer (type:depth-idx)                   Output Shape              Param #
==========================================================================================
├─IntermediateLayerGetter: 1-1           [4, 512, 13, 17]          --
|    └─Sequential: 2-1                   [4, 512, 13, 17]          --
|    |    └─Conv2d: 3-1                  [4, 64, 425, 560]         2,368
|    |    └─ReLU: 3-2                    [4, 64, 425, 560]         --
|    |    └─Conv2d: 3-3                  [4, 64, 425, 560]         36,928
|    |    └─ReLU: 3-4                    [4, 64, 425, 560]         --
|    |    └─MaxPool2d: 3-5               [4, 64, 212, 280]         --
|    |    └─Conv2d: 3-6                  [4, 128, 212, 280]        73,856
|    |    └─ReLU: 3-7                    [4, 128, 212, 280]        --
|    |    └─Conv2d: 3-8                  [4, 128, 212, 280]        147,584
|    |    └─ReLU: 3-9                    [4, 128, 212, 280]        --
|    |    └─MaxPool2d: 3-10              [4, 128, 106, 140]        --
|    |    └─Conv2d: 3-11                 [4, 256, 106, 140]        295,168
|    |    └─ReLU: 3-12                   [4, 256, 106, 140]        --
|    |    └─Conv2d: 3-13                 [4, 256, 106, 140]        590,080
|    |    └─ReLU: 3-14                   [4, 256, 106, 140]        --
|    |    └─Conv2d: 3-15                 [4, 256, 106, 140]        590,080
|    |    └─ReLU: 3-16                   [4, 256, 106, 140]        --
|    |    └─MaxPool2d: 3-17              [4, 256, 53, 70]          --
|    |    └─Conv2d: 3-18                 [4, 512, 53, 70]          1,180,160
|    |    └─ReLU: 3-19                   [4, 512, 53, 70]          --
|    |    └─Conv2d: 3-20                 [4, 512, 53, 70]          2,359,808
|    |    └─ReLU: 3-21                   [4, 512, 53, 70]          --
|    |    └─Conv2d: 3-22                 [4, 512, 53, 70]          2,359,808
|    |    └─ReLU: 3-23                   [4, 512, 53, 70]          --
|    |    └─MaxPool2d: 3-24              [4, 512, 26, 35]          --
|    |    └─Conv2d: 3-25                 [4, 512, 26, 35]          2,359,808
|    |    └─ReLU: 3-26                   [4, 512, 26, 35]          --
|    |    └─Conv2d: 3-27                 [4, 512, 26, 35]          2,359,808
|    |    └─ReLU: 3-28                   [4, 512, 26, 35]          --
|    |    └─Conv2d: 3-29                 [4, 512, 26, 35]          2,359,808
|    |    └─ReLU: 3-30                   [4, 512, 26, 35]          --
|    |    └─MaxPool2d: 3-31              [4, 512, 13, 17]          --
├─DeepLabHead: 1-2                       [4, 38, 13, 17]           --
|    └─ASPP: 2-2                         [4, 256, 13, 17]          --
|    |    └─Sequential: 3-32             [4, 256, 13, 17]          328,192
|    └─Conv2d: 2-3                       [4, 256, 13, 17]          589,824
|    └─BatchNorm2d: 2-4                  [4, 256, 13, 17]          512
|    └─ReLU: 2-5                         [4, 256, 13, 17]          --
|    └─Conv2d: 2-6                       [4, 38, 13, 17]           9,766
==========================================================================================
Total params: 15,643,558
Trainable params: 15,643,558
Non-trainable params: 0
Total mult-adds (G): 72.90
==========================================================================================
Input size (MB): 15.23
Forward/backward pass size (MB): 2060.43
Params size (MB): 62.57
Estimated Total Size (MB): 2138.23
…
